london_simulation/gnn_models/minimal_gnn_model_2025-06-24.pth (torch, 14609 bytes, 5 tensors)

conv1.weight f4 [64, 10]
000000 16 cb 26 3e 99 83 f0 ba 76 2f 83 bf 42 2d c8 bf
       0.16288409 -0.0018349766 -1.0248859 -1.5638812
000010 2d 64 83 3f 27 ef ab bf 80 85 7a 3e 4c a9 65 3e
       1.0264946 -1.3432359 0.24464989 0.22427863
000020 ad ce a6 be bb 8f 11 c0 a9 c7 c2 be 0c ba da be
       -0.32579556 -2.2743976 -0.38042954 -0.42720068
000030 c3 90 1e 3e ab 87 94 be 79 b2 b1 bd 1a 6e 14 c0
       0.1548491 -0.29009756 -0.08676619 -2.31922
000040 dc 0a 05 bf a2 1b 94 bf 3f 86 31 bf 58 26 cc 3e
       -0.51969695 -1.1570933 -0.6934547 0.39873004
000050 a8 13 3f be 89 92 bf 3f 08 9b 8c be 09 ae 88 bf
       -0.18659842 1.4966594 -0.2746203 -1.0678111
000060 6d 81 d1 3e be c9 ee 3f c5 94 00 3e fd 79 e8 3e
       0.40919057 1.8655317 0.12556751 0.4540557
000070 8d 75 90 be 96 ff af 3f 0d 6b 24 bf 7b 39 9a be
       -0.28214684 1.3749874 -0.64225847 -0.3012198
000080 f5 e8 2b 3e f4 22 89 3f 56 6d b0 bf 1d 05 71 bf
       0.16788085 1.0713792 -1.3783367 -0.9414843
000090 a9 8d bb be 9d a2 db bf a2 6a 3d 3f 0f 32 54 3f
       -0.36631516 -1.7159001 0.73990834 0.82888883
0000a0 d5 0c 42 bf eb bb 91 3f b7 01 07 bf 12 f6 a5 be
       -0.7580083 1.1385473 -0.5273699 -0.324143
0000b0 74 3a ed bf 1a 02 fc 3e e1 90 9d 3e 66 05 9d 3e
       -1.8533463 0.49220353 0.30774596 0.3066818
0000c0 b0 84 5a bf 06 14 37 3c d7 b4 f5 be 48 3f a3 bf
       -0.85358715 0.011174208 -0.47989532 -1.2753687
0000d0 fd 10 b3 bf 6c 9f 76 bf f3 c8 a4 be 99 e8 ac 3f
       -1.398956 -0.9633701 -0.32184562 1.3508483
0000e0 41 36 1b 3f f7 05 27 be 6d c3 f4 be 22 3a d9 bf
       0.6062966 -0.16310869 -0.47805348 -1.6970866
0000f0 5d 3d d1 3f ad 4c 8e bf 65 48 63 3f f9 53 03 3f
       1.6346852 -1.111715 0.8878234 0.5130001
000100 ed 9b 8e 3d 1f 08 5e bf 47 05 ab be af 19 b9 be
       0.06963334 -0.8673114 -0.33402464 -0.36152408
000110 62 1f 57 bf 0e c2 74 bf 8a aa 6e 3f f3 8a 98 be
       -0.8403226 -0.95608604 0.9322897 -0.2979351
000120 2d 05 b2 bf 46 37 e6 3e 21 b0 58 be 81 94 8a 3e
       -1.390783 0.44964045 -0.21160938 0.27066424
000130 32 be bf 3f 58 83 34 3f 27 d0 4e 3f e5 81 22 3f
       1.4979918 0.70512915 0.80786365 0.63479453
000140 d5 05 b1 3e 1f 67 b8 bf 31 8a 57 be 9b 35 b1 bf
       0.34574762 -1.440647 -0.2104881 -1.3844484
000150 61 54 d2 be f1 83 15 be b8 87 4c bf 4a 93 82 3f
       -0.4108 -0.14601113 -0.7989459 1.0201199
000160 a5 22 29 bf 7a 68 6a 3f 7e 97 ea 3c be 12 0b bf
       -0.6606849 0.9156567 0.02863669 -0.54325473
000170 00 10 f5 be de 03 d7 bd 9b 5f 99 3f a0 b9 66 3e
       -0.4786377 -0.104987845 1.1982301 0.22531748
000180 e5 ae 92 3e d4 e1 50 bf 44 53 5c bf 09 27 dc 3f
       0.2864906 -0.81594586 -0.86064553 1.7199413
000190 ad 20 b6 3f e8 44 2e be 19 7c c9 be 95 31 15 bf
       1.4228722 -0.17018473 -0.39352491 -0.5827878
0001a0 98 fc 9f bf 0a 4e 17 be b9 19 a5 3d e7 09 07 bf
       -1.249896 -0.14775863 0.08061547 -0.52749485
0001b0 1f 2d ba bf ce 6c 7d 3f 0a 9d 87 3f 9a 83 46 3f
       -1.454502 0.9899415 1.05948 0.7754456
0001c0 9b c1 80 bf 55 50 24 40 03 16 a7 3f 21 c7 0c 3f
       -1.0059084 2.567403 1.3053592 0.54991347
0001d0 f9 55 06 3d 4d 22 df bf 57 2e b4 be 91 f0 9b 3f
       0.032796834 -1.7432343 -0.35191604 1.218279
0001e0 ca 71 9e bf e2 3d ca bf e7 47 f9 bd 63 36 f5 bf
       -1.2378476 -1.5800135 -0.121719174 -1.9157223
0001f0 a9 d7 ad 3e 6e 7b 30 bf 90 8f 9f bf 96 5a 78 3f
       0.33953598 -0.6893834 -1.2465687 0.97013223
000200 49 4c 4f 3e fb d6 88 3e 70 df 06 bf 2d 2a 38 3e
       0.20243944 0.26726517 -0.5268469 0.17984839
000210 38 ec 07 3f f6 dc bb 3f c8 89 c4 3d ab c3 21 bf
       0.53094816 1.4676807 0.09596592 -0.6318919
000220 f1 e8 69 3f f0 f2 d8 bf 43 d5 ac 3f 43 d6 11 3f
       0.91371065 -1.6949139 1.3502582 0.5696756
000230 53 2e d2 bf 49 e1 b3 3f 1d f9 81 3e bf 10 fc be
       -1.6420387 1.4053127 0.2538537 -0.49231526
000240 aa 38 9d 3f 96 f8 a2 3f 43 7c 51 bf 30 66 57 3f
       1.2282917 1.2732112 -0.81830233 0.841403
000250 70 c5 4e 3f d5 36 0a c0 23 f2 08 3e be b7 45 bf
       0.80770016 -2.1595967 0.13373618 -0.77233493
000260 f0 a8 1f 3f d8 86 c5 bf 1a d2 ef 3e 59 83 7f 3f
       0.62367153 -1.5431776 0.46839982 0.99809796
000270 3a b5 12 c0 15 39 94 be 1e 3a d3 3c ef 51 1e 3f
       -2.2923112 -0.289498 0.025784548 0.6184377
000280 63 b9 37 bf 56 74 d8 bf 81 04 04 c0 25 c1 f2 3e
       -0.7176725 -1.6910503 -2.062775 0.47412983
000290 94 7c bf 3e 18 5b 7d 3f aa 4d 76 3d e9 6e f8 3e
       0.37399733 0.98967123 0.06013266 0.48522118
0002a0 58 79 a7 bf 2f ec bb 3d ff 87 3f 3f 8c a1 dc bf
       -1.3083906 0.09175908 0.7481689 -1.72368
0002b0 f3 80 b1 be ba 51 f2 bf c9 63 92 bf 59 9c 79 be
       -0.34668693 -1.8931191 -1.1436702 -0.24376048
0002c0 1e 66 8b bf 05 50 6e 3f b1 07 fe 3f 79 47 75 3f
       -1.0890539 0.9309085 1.9846097 0.95812184
0002d0 93 73 0e 3e 98 42 ed be 9b 09 ab be 48 1f a5 bf
       0.13911276 -0.4633987 -0.33405766 -1.2900171
0002e0 80 26 a1 bf 97 b3 1c 3f 59 ad e7 bf b5 f3 6e 3f
       -1.2589874 0.6121153 -1.8099777 0.9334062
0002f0 00 99 b9 bb 47 01 3a be e0 b8 85 bf 84 f1 d6 be
       -0.005663991 -0.1816455 -1.0447044 -0.41981137
000300 2a fd 4a bf 3a 86 0a bf 3e 33 18 bf 39 da 94 bf
       -0.7929255 -0.54111063 -0.5945319 -1.1629096
000310 f0 fa a6 be 76 d1 cf 3d ed 41 31 3e 6f c6 c2 3e
       -0.32613325 0.101473734 0.17310305 0.38042018
000320 95 62 d0 bb 05 58 e1 bd b0 58 a5 be e9 7f 58 3c
       -0.006359408 -0.110031165 -0.32294226 0.01321409
000330 1e e6 1e c0 0c c2 1d 3f 35 e2 ad bf b0 f0 a6 3f
       -2.4827952 0.6162422 -1.3584658 1.3042202
000340 e3 4a bf 3e ac 9d c2 be e3 d9 42 3f 2e 03 30 bf
       0.37361822 -0.3801092 0.7611372 -0.6875485
000350 ab 36 02 40 9e fb 1f bd 34 5b 36 3f 90 3b b8 3f
       2.0345867 -0.03905832 0.71232915 1.4393177
000360 97 11 19 bf 5a 91 cf 3e 6b 24 fa 3e fc c9 62 3f
       -0.59792465 0.40540582 0.4885591 0.88589454
000370 a7 42 59 bf 5a 07 36 bf 8b 7e 95 bf 37 65 3b bf
       -0.8486733 -0.7110497 -1.1679243 -0.73201317
000380 0a b0 ba 3f 14 57 bc 3e 33 0c 9c bf 0a be f4 3e
       1.4584973 0.36785185 -1.2191223 0.47801238
000390 75 df 1e 3f 10 db 8c bf 52 4f 8d 3f d1 12 32 c0
       0.6205972 -1.1004353 1.1039832 -2.7823985
0003a0 2f d0 3f 3f 26 39 80 bf fe 88 80 bf 6a bb 74 3f
       0.7492704 -1.001744 -1.0041807 0.9559847
0003b0 c8 a7 9c bf 06 60 1b 3e 36 0d 0f bf ed 37 13 be
       -1.2238703 0.15173349 -0.55879533 -0.14376803
0003c0 dc 6e 1d 40 34 80 b8 bf d7 f2 2c bf c1 96 69 bf
       2.4598913 -1.4414124 -0.67558044 -0.9124566
0003d0 3a 1b 21 3f 8a 03 68 bf a2 ee 6d 3f d5 f5 5d bf
       0.6293217 -0.906304 0.9294225 -0.86703235
0003e0 ee 24 a6 bf a7 eb 27 3f e0 1a 4c bf e1 c0 d5 bd
       -1.298002 0.6559395 -0.7972851 -0.10437179
0003f0 30 61 c1 3f fb cb fd be 85 80 f4 bf 4d b7 32 3f
       1.5107784 -0.49569687 -1.9101721 0.69810945

conv1.bias f4 [64]
000000 d6 4d 60 3f 7c 5b 0b bf 81 13 ea bf cd 4f 88 3f
       0.8761877 -0.5443647 -1.8287202 1.0649353
000010 f3 0b 3c be f3 5e a0 bf ad 1f 16 bf e0 43 bd 3f
       -0.18363933 -1.2528976 -0.58642083 1.4786339
000020 25 0a cc bf bf cc 79 bf 16 cf a0 3f 04 a2 ea bf
       -1.5940596 -0.9757804 1.2563198 -1.8330693
000030 5c 0b cf 3d b6 81 d2 3e ad af 83 bf bf 97 cb be
       0.101095885 0.41114587 -1.0287987 -0.3976421
000040 be b1 2b 40 75 a1 0f 3f 6f 9f 2d bc 2f cb c7 bf
       2.6827235 0.5610574 -0.010597094 -1.5608882
000050 63 94 99 be 76 2b 41 be ed f8 bb 3e ce f5 40 3e
       -0.29996023 -0.18864235 0.36713353 0.18843767
000060 ff 2e fb 3e 4d 44 d9 bf 68 e9 b4 3f 67 55 9a be
       0.49059293 -1.6973969 1.413373 -0.30143282
000070 10 eb 23 bf d6 42 3f be b8 1f d4 3e dc aa 9e 3f
       -0.6403055 -0.1867784 0.4143045 1.2395892
000080 53 c2 59 3e 8b 85 b8 be f6 60 07 bf 6e ea b4 bf
       0.21265535 -0.36039385 -0.52882326 -1.4134042
000090 16 6e e2 bf c0 c6 fe bc ca 40 1e 3e 1b 72 ca 3f
       -1.7689846 -0.03110063 0.15454403 1.5816072
0000a0 8b 3a a6 3d 78 8c 0a 40 c6 46 f5 3e 39 aa a4 be
       0.08116635 2.1648235 0.47905558 -0.3216112
0000b0 e8 9d 13 bf 90 37 53 3f 79 ff 30 3f 22 9f 93 be
       -0.5766282 0.82506657 0.6913982 -0.28832346
0000c0 5f 95 d9 bd e2 fa f6 bf 26 72 01 c0 17 94 4f 3f
       -0.106241934 -1.9295313 -2.022592 0.8108534
0000d0 68 73 18 bf db 3e 91 be 7f 7f 9c bf dc 07 28 3f
       -0.59551096 -0.28368267 -1.2226409 0.6563699
0000e0 df 31 8f 3e 4a ef 3d 3f 9d 88 05 40 c4 2c 54 3e
       0.27967736 0.7419325 2.0864632 0.20720202
0000f0 67 4a 74 bf 94 d1 9c be 2f 78 68 3f 16 37 94 bd
       -0.9542603 -0.30628645 0.90808386 -0.07237069

conv2.weight f4 [32, 64]
000000 ba bd 87 3f 46 16 2a 3f 8b c1 fc be 5f b4 42 be
       1.0604775 0.66440237 -0.49366412 -0.19014119
000010 9f 48 b4 be 18 99 5c 3f 0b 8e 57 be 3b e7 8b 3e
       -0.35211655 0.861711 -0.21050279 0.27324852
000020 96 dc b4 3f 0c 4a 23 3f 0c be 7e 3f 48 13 58 3f
       1.4129817 0.6378486 0.9950874 0.8440442
000030 70 13 99 3d 6c ef 4a bf 7b 6e 30 3f e8 d6 11 3d
       0.074744105 -0.7927158 0.6891858 0.03560534
000040 4f 59 8a bf 0a 39 fd be 3b 14 46 be e1 b0 07 c0
       -1.0808505 -0.4945758 -0.19343655 -2.1201708
000050 bc 40 9b bf db 95 10 40 3d f9 7e be 87 d8 2b 3f
       -1.212913 2.2591465 -0.24899764 0.6712727
000060 55 0d 30 bf c9 44 06 bf 1a 34 4e be dc 3f 3b c0
       -0.68770343 -0.5244871 -0.20137063 -2.9257727
000070 3b 52 81 3f 3e fd 37 bf 05 39 0a bf 9a 63 49 40
       1.010322 -0.7187079 -0.53993255 3.1467042
000080 33 41 8f 3f c1 84 da bf b0 d1 35 3e bc 22 87 bf
       1.1191772 -1.7071763 0.1775577 -1.0557475
000090 b9 b4 77 bf 8d 63 35 3f 72 d1 3b 3e a4 7e 3c 3f
       -0.96760136 0.7085503 0.18341616 0.7363074
0000a0 2a 15 28 3f 4f bc 16 bc e7 8a b3 3f e7 6c 56 bf
       0.65657294 -0.00920017 1.4026765 -0.8375992
0000b0 7e 2d cb 3c c1 65 4f bf 8a 07 47 3f 44 43 b3 bf
       0.024801966 -0.8101464 0.7774588 -1.4004903
0000c0 7f 02 d2 3e c5 b1 43 bf a1 f7 27 3e cb c9 18 c0
       0.4101753 -0.7644313 0.16403057 -2.3873165
0000d0 c9 98 24 40 2d 30 33 3f d5 97 23 c0 9f 77 33 3d
       2.5718253 0.69995385 -2.556142 0.04381525
0000e0 2a ee 1f bf ac b6 7f 3e b5 2f 56 3e ac a8 0a c0
       -0.62472785 0.24972028 0.20916636 -2.166545
0000f0 83 7b 58 3f dc c1 f5 be 3e 8f 44 3f 07 e9 27 3f
       0.84563464 -0.47999465 0.7678107 0.65589947
000100 4a 81 24 3f 36 3c 01 3f 6a 68 cf be ee 67 44 3f
       0.6425978 0.504825 -0.4050935 0.76721084
000110 af 80 03 bf f2 e2 46 bf 87 4d 15 bf f8 f6 03 be
       -0.5136823 -0.7769004 -0.5832142 -0.1288718
000120 d4 e3 4f 3f cb 35 34 3f 85 fb a8 bf c4 81 85 3f
       0.81207013 0.7039458 -1.3201758 1.0430226
000130 21 62 a3 3f 99 6f 75 be af 58 ee 3f 93 5c 58 be
       1.2764322 -0.23968352 1.8620814 -0.21129064
000140 1f c5 2b 40 4e 79 a0 3f 2d c4 96 3b 44 e0 aa 3f
       2.6839063 1.2537019 0.0046010227 1.334969
000150 d0 d9 30 be 7d b5 08 3f b1 06 9e bf 4b 16 96 3c
       -0.17270589 0.5340193 -1.2345792 0.018321177
000160 cd 86 5c 3f d8 04 3d 3e 45 cd 80 3f 7f 6b 8b 3e
       0.8614319 0.18458879 1.0062643 0.2723045
000170 de 64 09 be ef 8c 61 3f 6a 5e 9b bf 27 7d 3d bf
       -0.13417384 0.8810567 -1.2138188 -0.7401909
000180 bf 7a b0 3e d8 56 0e be 81 80 31 be 42 09 97 be
       0.34468648 -0.13900316 -0.17334177 -0.2949925
000190 c3 8e cb 3f d8 b6 05 bf b9 b8 13 3f 6b 53 a1 3e
       1.5902942 -0.5223212 0.5770374 0.31508955
0001a0 96 c0 cd be 9b e6 c5 be 1f 49 31 3f 8f 17 ec be
       -0.40185994 -0.386525 0.692522 -0.46111724
0001b0 fa 5d cf 3f d6 7e a8 bf 98 40 23 3f 52 fd 97 3f
       1.6200554 -1.3163707 0.6377044 1.1874182
0001c0 44 37 49 bf 5b 2e 3c bd 38 f8 5d be 74 d5 2d be
       -0.78599954 -0.045942646 -0.21676719 -0.16975957
0001d0 e8 ba 06 3e ae 9f d8 bf 78 1e 36 3f b7 39 f3 be
       0.13157237 -1.692373 0.7114024 -0.4750497
0001e0 b7 d1 d9 bf 17 c2 93 bf 5b fd 4c bf 55 35 c4 bf
       -1.7017125 -1.1543607 -0.8007409 -1.5328776
0001f0 25 b4 1c 3f 7b 30 db be 3d 85 43 3f 93 fb cc 3f
       0.6121238 -0.42810425 0.7637518 1.6014274
000200 44 cf 6c bf 02 04 5b 3e 41 d7 60 3f 6a d5 b5 bd
       -0.9250376 0.21388248 0.8782845 -0.08878596
000210 ba 95 5a 3b c8 08 2e bf 9f cc c1 bf f1 3f 3a 3f
       0.0033353404 -0.6798215 -1.514057 0.72753817
000220 65 ff 7b bf 77 a7 b3 be fc 7d 9f bf 44 2b 80 3f
       -0.98436576 -0.35088703 -1.2460322 1.0013204
000230 29 c3 8e 3f 0f 87 71 bd 94 28 9d 3f 4f b3 81 bf
       1.1153308 -0.058966693 1.2278008 -1.0132846
000240 cb 85 c0 3e 9f d2 73 bf 39 fa 0d 3e c5 f9 d0 3f
       0.37602076 -0.9524326 0.13864984 1.6326224
000250 a7 ce 14 3e fc 5c c2 bf 67 1c cc bf 8e d2 82 3f
       0.14531957 -1.5184627 -1.5946168 1.0220506
000260 58 2c df 3f d6 17 fd bf bf 34 5d 3f b0 a4 8d be
       1.7435408 -1.9772899 0.8640861 -0.2766471
000270 bd ea 9a 3f 79 6b 71 bf 27 5f 5c bf 37 fd 1e 3f
       1.2102886 -0.94304615 -0.8608269 0.62105125
000280 02 af 00 40 ec ef b3 3f 5c b3 9d 3f 45 8e 28 bf
       2.0106816 1.4057593 1.2320361 -0.65842086
000290 74 dd 01 3f 62 3f a6 bf e7 39 c3 be ce 70 13 3e
       0.50728536 -1.2988093 -0.38130113 0.143985
0002a0 aa 60 00 3f 42 7b 27 bf 04 73 67 bf 07 a2 f7 bf
       0.501475 -0.6542245 -0.90409875 -1.9346322
0002b0 d2 4e c4 3f b5 8f 3f bf 48 c0 8b 3f 8d 05 d7 3d
       1.5336554 -0.74828655 1.0918055 0.104991056
0002c0 d5 b5 66 bf 73 18 a1 bf a8 8d 43 3f d6 91 13 3f
       -0.90121204 -1.2585586 0.76388025 0.57644403
0002d0 a0 43 19 bf 05 70 f8 3f e1 6c be 3e cf 97 61 3f
       -0.5986881 1.9409186 0.37192443 0.88122267
0002e0 6e fb a9 3e 73 b3 93 be ba e4 b5 be 00 e2 00 40
       0.33199638 -0.28847846 -0.35526067 2.013794
0002f0 2f cd 11 3f bc b1 5c bf 4a ef cd 3f c7 ae cf be
       0.5695371 -0.862087 1.608865 -0.40563032
000300 1c 44 0a 3f 23 92 20 bf 86 79 37 3e ff 5b 3f bf
       0.54010177 -0.62722987 0.17917451 -0.7474975
000310 60 a9 22 bf fc a7 0f 3d af 5f 08 c0 3e 6c ab bf
       -0.63539696 0.03507231 -2.13084 -1.3392408
000320 d8 ce c7 bc 83 4e 85 be e6 79 a5 bf 96 0a 5f bf
       -0.024390623 -0.26036462 -1.2927825 -0.8712553
000330 8b d7 35 be 59 d2 9d 3e a2 bd ea bf f6 1f 61 3f
       -0.17758004 0.30824545 -1.8339121 0.87939394
000340 f5 5d 55 bf 11 67 43 3f 92 06 62 bf 4a 40 1c 3f
       -0.8334649 0.7632914 -0.88291276 0.610356
000350 96 17 c3 3f 11 b8 30 3f a7 f5 a8 3e db 0f c2 bf
       1.5241573 0.69030863 0.32999918 -1.5161089
000360 b7 06 00 3f b1 46 2e 3f 90 dd 94 3d 84 10 01 be
       0.50010246 0.68076617 0.07268822 -0.12603956
000370 bf 9d 0a 3f e8 7f a3 3e 70 a1 3a 3d c3 92 1b 3f
       0.5414695 0.31933522 0.045564115 0.60770816
000380 d7 bd cc 3f 52 e8 0a c0 c6 88 91 bf 84 68 c3 3f
       1.5995435 -2.1704297 -1.1369865 1.5266271
000390 f1 29 7f 3f 9a 1f 91 bf c7 71 9e 3e 74 e3 fa bf
       0.9967337 -1.1337769 0.3094618 -1.9600663
0003a0 7b 0c f5 3e e4 93 66 3f 62 d2 85 bf ff 18 3b bf
       0.47861084 0.90069413 -1.0454829 -0.73085016
0003b0 b5 fb 05 3e 0f f4 98 3f e5 3a ef bf 54 e8 f8 3f
       0.130843 1.1949481 -1.8689848 1.9445901
0003c0 6f a2 3f bf 7f 39 a1 bf 6d c0 8b be 33 0a 40 bf
       -0.7485723 -1.2595671 -0.27295247 -0.7501556
0003d0 17 77 c3 3f 49 8e 84 3f b4 65 61 3f e4 d3 b4 3f
       1.5270718 1.0355922 0.8804581 1.4127164
0003e0 2e 50 54 bf 31 5c f9 3d 0d 9e 9a be d8 c1 45 bf
       -0.82934844 0.12175787 -0.30198708 -0.7724891
0003f0 08 e3 de bf a2 03 63 be 6c 28 33 40 92 1f ad 3f
       -1.7413034 -0.22169355 2.7993422 1.352526

conv2.bias f4 [32]
000000 3a 65 23 bf cb 02 5c 3f d2 91 27 bf d5 ad 15 40
       -0.63826334 0.8594176 -0.6545688 2.3387349
000010 82 87 e1 3f ad dc a1 bf 41 84 8f bf 6d 30 bb 3e
       1.7619479 -1.264547 -1.1212236 0.36560383
000020 3a 0d b0 bf 47 14 3b 3e 34 a4 4a bd 7a 98 b4 bf
       -1.3754036 0.18269454 -0.049473003 -1.4109032
000030 6e 68 1b be 9f bf 76 3f d3 b1 2a bf ce 43 0c bf
       -0.15176556 0.9638614 -0.6667759 -0.5479096
000040 32 77 03 3f 1a 7d fb be a3 1c 1c 3f 2c 31 47 3e
       0.5135375 -0.49118882 0.60981196 0.19452351
000050 e1 ac 9d be ab c1 91 3f c4 dc a4 bf b2 94 1d 3e
       -0.3079596 1.1387228 -1.2879872 0.15388754
000060 5c 63 49 bf a2 01 7f be 88 a0 7f bf 81 d1 6e 3e
       -0.78667235 -0.24902967 -0.99854326 0.23322107
000070 c7 6d 1f 3f 45 a9 75 bf af 02 04 3f 09 29 af bf
       0.6227688 -0.9596141 0.51566595 -1.3684398

output.weight f4 [1, 32]
000000 f4 89 21 3f 43 54 c1 bf 0a 55 94 be c8 8b 80 3f
       0.63101125 -1.510384 -0.2897113 1.0042658
000010 33 ab a0 3e ff 1b 89 be dc da a1 3f 32 8d b4 3f
       0.31380615 -0.26779172 1.2644916 1.4105589
000020 16 14 6d bf 3f 31 70 bf fc 9c 63 bf fc 8d d4 3e
       -0.92608774 -0.93825144 -0.88911414 0.41514575
000030 82 39 55 bd 4f 81 8c bd cc f3 22 3f 64 74 fa bf
       -0.052056797 -0.06860601 0.63653255 -1.956677
000040 62 c7 30 3e f2 6a c1 3d 7a 85 1a 3f 7f 90 8d 3e
       0.17263559 0.09444226 0.6035992 0.27649304
000050 d2 f8 61 3f b7 ee ed 3e 94 3a e5 3e 13 b4 a0 bf
       0.88270295 0.46471187 0.44771254 -1.2554954
000060 d4 c0 ad 3f 51 4f 73 bf 53 cf 93 be 71 96 fe be
       1.3574471 -0.950429 -0.28869113 -0.49724153
000070 bc 09 cb 3d 33 ef 81 3f ed 0d 80 3f b2 e8 9b bf
       0.09913966 1.0151123 1.000425 -1.2180388
